myapp/.dart_tool/chrome-device/Default/optimization_guide_prediction_model_downloads/87dde680-de97-42a9-89b7-d769941e191a/model.tflite (tflite, 67216 bytes, 5 tensors)

dnn/hiddenlayer_1/bias/part_0 f4 [64]
0.08896355 -0.030048547 0.002283735 0.019667683 -0.03154909 -0.04203844 -0.01226522 -0.03760617
0.08363025 0.108174324 0.02748725 0.04996626 -0.031035207 0.018504078 -0.008846084 0.05727445
-0.013024996 -0.02768381 -0.018014695 -0.022992264 -0.029990474 0.016301304 0.09099045 -0.011282962
-0.044991467 0.0065670363 0.059062555 -0.00649526 0.021865 -0.023815272 0.05523876 -0.048903327
0.07024834 -0.026991358 -0.052895814 -0.050145492 0.023592863 0.015580315 0.084144674 -0.043163896
-0.021357698 -0.020161722 -0.030515604 0.053561337 0.101819046 -0.036068216 -0.060249783 -0.023664387
-0.0058965557 -0.00200789 0.08954772 0.06932555 0.033605687 0.004514916 0.028162666 0.05985429
0.0015133846 0.051430058 -0.077269435 -0.008952099 -0.008853792 0.003202124 0.100156054 -0.06068789
00000000: 8632 b63d 5f28 f6bc b7aa 153b 1f1e a13c
00000010: 9e39 01bd 8030 2cbd 10f4 48bc ed08 1abd
00000020: 5646 ab3d 808a dd3d f12c e13c 6ca9 4c3d
00000030: 8c3d febc dd95 973c 2aef 10bc 9d98 6a3d
00000040: cb66 55bc 28c9 e2bc 8e93 93bc 465a bcbc
00000050: 95ae f5bc 508a 853c 3359 ba3d 2cdc 38bc
00000060: f948 38bd 4b30 d73b 94eb 713d 31d6 d4bb
00000070: 3a1e b33c 3f18 c3bc 0a42 623d db4e 48bd
00000080: 5dde 8f3d fb1c ddbc 48a9 58bd 5c65 4dbd
00000090: d245 c13c 9444 7f3c 0b54 ac3d a0cc 30bd
000000a0: 57f6 aebc 322a a5bc dcfb f9bc 2263 5b3d
000000b0: 8186 d03d 44bc 13bd 7ac8 76bd d1db c1bc
000000c0: e537 c1bb ce96 03bb cc64 b73d 8efa 8d3d
000000d0: 1ea6 093d dcf1 933b 64b5 e63c c629 753d
000000e0: c35c c63a 53a8 523d 703f 9ebd d3ab 12bc
000000f0: 7f0f 11bc bada 513b 9e1e cd3d dd93 78bd

dnn/hiddenlayer_0/bias/part_0 f4 [128]
0.00038549822 -0.04579809 -0.1616436 0.04119606 0.018780598 0.027089596 -0.08347846 0.021467388
0.041763257 0.053904053 -0.050317198 0.01527531 -0.014912853 0.039748847 0.010290009 0.018596862
-0.0342288 0.13574396 -0.023800913 -0.048492074 -0.0061203116 0.044031877 -0.03180521 -0.2105651
0.014634793 -0.014100576 0.07758548 -0.033471026 -0.010211085 -0.09660457 0.08437919 0.032503564
-0.04195437 -0.07366867 0.10326208 -0.09578797 -0.027719153 -0.0036065357 0.02854052 0.054241873
-0.020595575 0.13038726 0.03337937 -0.0071394513 0.040103294 -0.02616444 -0.027583063 -0.02535668
0.03956237 0.015090876 -0.029107332 0.015070309 0.052600015 0.014666385 0.004330043 -0.022194082
0.051791273 -0.06674935 0.063102424 -0.0033576002 -0.022708848 -0.03312246 0.108983725 -0.042428818
0.0562001 -0.013227115 -0.004043109 0.0036746499 0.029845987 0.040891875 -0.019579025 -0.02596119
0.014063194 0.027440837 -0.08078244 -0.02545253 0.018865293 0.0054085273 0.014753426 -0.13823844
0.021709092 0.022168683 0.096584715 0.03997032 -0.07240932 -0.016302465 0.0005583338 -0.0039963042
0.009116505 -0.041692548 -0.07053409 -0.0019222042 -0.0051293033 -0.00027200108 0.007968163 -0.012152084
-0.08471935 -0.02929354 0.04515727 -0.039641317 0.020911423 0.022758368 0.052555587 -0.023271414
0.003987872 0.036557216 -0.044424996 0.0001077852 -0.008907736 0.04462198 -0.04704926 -0.028332803
-0.052140307 0.12993473 -0.04501767 0.005910178 -0.12516128 -0.1297077 0.021692546 -0.06433004
-0.13069278 -0.031161593 -0.03276499 -0.033101223 -0.031673454 0.021745194 0.07898154 -0.07466679
00000000: b21c ca39 c796 3bbd e685 25be 33bd 283d
00000010: c5d9 993c 00eb dd3c c1f6 aabd 60dc af3c
00000020: f30f 2b3d 7fca 5c3d 6819 4ebd 4b45 7a3c
00000030: 0a55 74bc b0cf 223d 6d97 283c 7258 983c
00000040: 8033 0cbd 7700 0b3e 22fa c2bc a09f 46bd
00000050: e58c c8bb c55a 343d 2e46 02bd 619e 57be
00000060: c5c6 6f3c 1a06 67bc 23e5 9e3d ea18 09bd
00000070: 654c 27bc 9ed8 c5bd ffce ac3d 7522 053d
00000080: 58d8 2bbd 9adf 96bd 127b d33d 7c2c c4bd
00000090: 4713 e3bc a15b 6cbb cfcd e93c ba2c 5e3d
000000a0: 0db8 a8bc 3d84 053e ceb8 083d 0ff2 e9bb
000000b0: 5a43 243d cf56 d6bc e0f5 e1bc d0b8 cfbc
000000c0: 270c 223d b93f 773c 8072 eebc 75e9 763c
000000d0: 1d73 573d 474b 703c 09e3 8d3b 5dd0 b5bc
000000e0: 1623 543d e2b3 88bd d83b 813d 2f0b 5cbb
000000f0: e807 babc 6bab 07bd dc32 df3d d7c9 2dbd
00000100: 1332 663d 8bb6 58bc 0e7c 84bb 65d2 703b
00000110: 927f f43c 3d7e 273d 3164 a0bc 90ac d4bc
00000120: 5069 663c 9bcb e03c 4471 a5bd d381 d0bc
00000130: 638b 9a3c 043a b13b 5bb8 713c 618e 0dbe
00000140: 44d7 b13c 199b b53c 35ce c53d ebb7 233d
00000150: 564b 94bd bf8c 85bc 265d 123a 6ef3 82bb
00000160: 655d 153c cec5 2abd 2d74 90bd 78f2 fbba
00000170: b713 a8bb 5e9b 8eb9 e68c 023c 8919 47bc
00000180: 5781 adbd 02f9 efbc d4f6 383d ef5e 22bd
00000190: 6f4e ab3c c26f ba3c 8744 573d b1a3 bebc
000001a0: b2ac 823b 05bd 153d fcf6 35bd bd0a e238
000001b0: c1f1 11bc 8ac5 363d bab6 40bd 321a e8bc
000001c0: 1391 55bd 9c0d 053e 7364 38bd 2baa c13b
000001d0: 472a 00be 18d2 04be 91b4 b13c 78bf 83bd
000001e0: 54d4 05be 9946 ffbc 9534 06bd 2695 07bd
000001f0: 06bc 01bd fa22 b23c 13c1 a13d e7ea 98bd

dnn/hiddenlayer_0/MatMul f4 [128, 12]
-0.10585831 -0.013363015 0.16173223 -0.21384361 0.00038809158 -0.0072265198 0.14919019 0.2126638
-0.10169296 0.12546496 0.18567385 -0.0142700905 -0.20713142 -0.16021085 0.136384 -0.017336268
-0.08590736 -0.058880042 0.1677656 0.034114473 0.014484375 -0.18789405 0.07208349 -0.15622385
0.085987255 0.15031828 -0.3160981 0.116890475 -0.017179254 0.053896755 -0.017907813 0.11145622
-0.060801372 0.14589204 0.02179788 -0.25946397 0.025813607 0.046512738 0.035292923 -0.13235748
-0.015846478 0.062618434 0.097220235 -0.0123830885 0.15735619 -0.22740152 -0.23222895 0.19046578
0.12327261 -0.09481724 -0.12762778 -0.016560031 -0.054409914 0.043577783 -0.14680718 -0.08805871
-0.14048581 -0.11837339 0.12903114 -0.033985853 -0.12523206 0.100344434 0.120895855 0.10836442
0.06610121 0.10966392 0.0101579605 -0.09973071 -0.008604766 0.08547956 0.11258067 0.13706832
-0.18583651 -0.071414895 -0.2758281 -0.06666441 0.13731052 -0.031358123 -0.25458747 -0.15066236
0.057964213 0.20021157 0.14621599 0.16738893 0.10737395 -0.079413705 0.03182478 -0.15572281
0.14823508 0.13566303 -0.1339706 0.08348327 -0.23121114 -0.109500244 0.066913925 0.12493354
-0.21660423 0.17112751 -0.1455084 -0.082746245 0.13112691 -0.089534886 0.18625113 -0.07305503
-0.27626786 -0.16757889 -8.233833e-05 0.20428479 0.0060568866 0.019614097 -0.10720583 0.14279689
0.06335373 -0.09699106 0.08913925 -0.11771112 -0.096331485 0.13338248 0.17417562 -0.15921573
0.15171494 0.110068835 0.1593309 -0.083729334 0.19038033 0.23728567 -0.011737226 -0.13533115
0.03484634 0.20716654 0.16298513 0.06921539 -0.20380536 0.10311459 -0.30038384 0.11687518
-0.12797906 -0.10051398 -0.025641717 0.1125806 0.11402447 0.061649222 0.2097122 -0.04298729
0.08393228 0.19320185 0.077217616 0.12880082 -0.13085572 0.08899478 -0.11659718 0.1282537
-0.08632839 0.1874173 -0.123738885 -0.21924756 -0.21529794 -0.13648504 -0.07209025 0.048410065
-0.100158304 -0.098767094 0.01379907 -0.1378074 -0.16788894 0.2018159 -0.20302421 -0.202368
0.15344127 0.07790444 -0.09294319 -0.028713219 0.044388164 -0.19642209 0.062397927 0.040260274
0.16988003 0.07254835 0.05523851 0.14884646 0.13373645 0.13065884 0.037652034 -0.08640682
0.022296228 -0.026943302 -0.085794255 0.1419208 0.07681163 -0.011080695 0.15664108 -0.04779848
-0.0655638 -0.041678235 0.15228048 0.19091406 -0.17134118 0.029186806 0.07699003 -0.020249663
-0.0031815737 0.2660817 -0.2057896 -0.10855894 0.094405085 -0.18009195 0.11652611 0.07421382
-0.00398124 -0.034834597 -0.09541696 -0.11636714 -0.2036259 0.005351526 0.23994356 0.13023807
0.1373974 0.083974965 0.04259281 -0.08022878 -0.011576868 -0.10437929 -0.19499785 0.14959177
0.12122496 0.11184636 0.00043324384 0.21649931 -0.13296916 -0.17056544 0.09146283 -0.014123597
-0.049248006 -0.17331663 0.16149266 0.16722554 -0.08680452 -0.049621917 0.029759131 0.0050379373
0.106497616 -0.06925684 -0.008648423 0.17217991 -0.010953596 -0.14543954 -0.15401283 0.08301213
-0.089086756 0.0023091158 0.10168367 -0.16683434 -0.09730849 0.16844073 0.08798852 0.12845035
00000000: 3ecc d8bd 8cf0 5abc 229d 253e d2f9 5abe
00000010: c578 cb39 71cc ecbb 50c5 183e 8ac4 593e
00000020: 6644 d0bd e379 003e 4921 3e3e 19cd 69bc
00000030: 421a 54be 500e 24be 3fa8 0b3e ca04 8ebc
00000040: 33f0 afbd 332c 71bd bfca 2b3e 9ebb 0b3d
00000050: df4f 6d3c 4c67 40be 82a0 933d 25f9 1fbe
00000060: 161a b03d 09ed 193e 9cd7 a1be 4664 ef3d
00000070: 82bb 8cbc d8c2 5c3d 68b3 92bc 2943 e43d
00000080: dc0a 79bd b964 153e 7891 b23c 76d8 84be
00000090: 0f77 d33c 2484 3e3d 508f 103d b888 07be
000000a0: 79d0 81bc 183e 803d 671b c73d 70e2 4abc
000000b0: fb21 213e f2db 68be 6dcd 6dbe 7609 433e
000000c0: 5a76 fc3d 8b2f c2bd dbb0 02be e7a8 87bc
000000d0: eedc 5ebd 9e7e 323d 9f54 16be 2058 b4bd
000000e0: 83db 0fbe bf6d f2bd bd20 043e c034 0bbd
000000f0: d53c 00be 6281 cd3d 3f98 f73d 2aee dd3d
00000100: 1260 873d 7a97 e03d 936d 263c 9d3f ccbd
00000110: 01fb 0cbc e80f af3d b290 e63d a35b 0c3e
00000120: ed4b 3ebe f941 92bd 5739 8dbe 5a87 88bd
00000130: 219b 0c3e 6071 00bd 4a59 82be 3c47 1abe
00000140: e26b 6d3d 4304 4d3e a5b9 153e 0168 2b3e
00000150: e0e6 db3d a7a3 a2bd b35a 023d cd75 1fbe
00000160: f0ca 173e 40eb 0a3e 972f 09be 47f9 aa3d
00000170: 9dc2 6cbe aa41 e0bd 2b0a 893d 28dd ff3d
00000180: 80cd 5dbe 0d3c 2f3e 2700 15be dd76 a9bd
00000190: 2246 063e 115e b7bd 9eb8 3e3e e09d 95bd
000001a0: fb72 8dbe cd99 2bbe 0ead acb8 0830 513e
000001b0: d978 c63b bead a03c bb8e dbbd 5939 123e
000001c0: 9abf 813d 40a3 c6bd a48e b63d 8712 f1bd
000001d0: 7149 c5bd 6b95 083e 185b 323e 7309 23be
000001e0: 295b 1b3e c56b e13d a427 233e 497a abbd
000001f0: 10f3 423e 04fb 723e 7e4d 40bc 4094 0abe
00000200: 09bb 0e3d 7723 543e 93e5 263e ccc0 8d3d
00000210: 5ab2 50be be2d d33d e9cb 99be 415c ef3d
00000220: f10c 03be 46da cdbd 940e d2bc a890 e63d
00000230: a985 e93d e583 7c3d ccbe 563e 7113 30bd
00000240: b0e4 ab3d b5d6 453e 4524 9e3d 5de4 033e
00000250: 0bff 05be e542 b63d 81ca eebd f054 033e
00000260: f0cc b0bd 52ea 3f3e d06a fdbd 6f82 60be
00000270: 1077 5cbe bcc2 0bbe 0ea4 93bd a249 463d
00000280: cc1f cdbd 6746 cabd 7f15 623c 621d 0dbe
00000290: 14eb 2bbe d4a8 4e3e 94e5 4fbe 8f39 4fbe
000002a0: b51f 1d3e 5d8c 9f3d 0059 bebd fc37 ebbc
000002b0: 5dd0 353d df22 49be f894 7f3d f5e7 243d
000002c0: 08f5 2d3e 3b94 943d c741 623d 356b 183e
000002d0: 35f2 083e 6ecb 053e 0539 1a3d 0ff6 b0bd
000002e0: 94a6 b63c 33b8 dcbc e6b4 afbd b053 113e
000002f0: 6a4f 9d3d ce8b 35bc 8566 203e 57c8 43bd
00000300: 5046 86bd ccb6 2abd 6aef 1b3e fa7e 433e
00000310: 1074 2fbe 2b19 ef3c f3ac 9d3d 9fe2 a5bc
00000320: f381 50bb dc3b 883e 82ba 52be 2654 debd
00000330: 7457 c13d 066a 38be 3ea5 ee3d 6afd 973d
00000340: 1075 82bb b9ae 0ebd f869 c3bd e551 eebd
00000350: 4f83 50be db5b af3b c4b3 753e 215d 053e
00000360: e7b1 0c3e 11fb ab3d cc75 2e3d fd4e a4bd
00000370: e7ac 3dbc cfc4 d5bd 84ad 47be 962e 193e
00000380: cb44 f83d b40f e53d 0125 e339 ffb1 5d3e
00000390: 1129 08be b5a8 2ebe dd50 bb3d a966 67bc
000003a0: 47b8 49bd ea79 31be 555e 253e 2c3d 2b3e
000003b0: 91c6 b1bd 5a40 4bbd 6cc9 f33c 4815 a53b
000003c0: 6c1b da3d 88d6 8dbd 1db2 0dbc ee4f 303e
000003d0: b676 33bc 1aee 14be 8ab5 1dbe 4302 aa3d
000003e0: 1e73 b6bd 8954 173b 873f d03d 9fd6 2abe
000003f0: ac49 c7bd ba7b 2c3e 5333 b43d 7d88 033e

dnn/hiddenlayer_1/MatMul f4 [64, 128]
-0.035231214 -0.13430648 -0.08233502 -0.055052165 -0.10604193 0.11573283 -0.0984749 0.099536724
-0.06729772 0.00029276655 -0.014581306 -0.07729077 -0.08634487 -0.085238576 0.03221498 0.010221702
0.029150013 -0.028769962 0.1577338 -0.16908808 0.13826507 -0.0884842 0.1441146 -0.023286603
-0.0549214 -0.2038824 0.111729965 -0.15856534 -0.11270711 0.104757495 0.18922856 0.17509666
0.028270943 0.11496332 0.04356547 0.0016465192 0.023003343 0.077569894 0.18709397 0.15136419
-0.0036756035 0.07491833 -0.08446573 -0.03438671 -0.15800643 -0.03360404 -0.09223288 0.034675676
-0.172062 -0.08926889 0.096752174 -0.015008273 0.22254968 0.021535814 -0.088923335 0.16188522
0.033025894 0.18112563 0.119050264 -0.0076865284 -0.057502817 0.15148045 0.047158293 0.0527303
-0.044449043 -0.10145073 0.14877374 -0.11270227 0.11419569 0.13216871 -0.1727422 0.0011574813
0.13930015 0.13415468 -0.093677655 -0.073651925 -0.07642323 -0.07962398 -0.04995196 0.08031333
-0.10240375 -0.10256323 -0.09175965 -0.02002369 -0.074988365 0.16225308 0.03783922 0.017887821
0.13226765 0.08379469 -0.17155346 -0.042494256 -0.018470345 -0.05301013 -0.066419885 0.040297903
0.05276321 -0.06085195 0.03862626 -0.061871268 -0.11376558 0.1052652 0.08575794 0.019996056
-0.026691416 0.06217611 0.18102613 0.07789095 0.17211965 0.21505079 -0.011248709 0.06314775
-0.039043617 0.010099608 0.24569672 0.06364954 0.23269121 -0.08697339 -0.10164177 -0.10390075
-0.14327344 -0.056171224 0.20891194 0.1389278 -0.017343672 -0.017755933 0.07079226 -0.050235018
0.020997059 0.05287323 0.13222417 0.062380027 0.16561882 0.07839832 -0.061338834 -0.12842835
-0.015927503 0.12555353 0.01573207 -0.05759858 -0.009098365 -0.109014 0.061813977 -0.04581811
0.103941664 -0.12497376 0.10403567 -0.11781801 -0.058534008 0.024200965 0.08420922 -0.08181007
0.09290774 -0.063633956 0.07690391 -0.08245981 -0.095544875 0.14382425 -0.09328126 0.048954695
-0.024830058 -0.008761197 -0.18946593 -0.18361872 0.08197068 0.14960666 -0.08335084 0.18285531
0.20476346 -0.18327191 0.1095704 -0.10893703 -0.049012702 0.15859863 -0.07461793 -0.028623467
-0.16949897 -0.043144953 0.19596082 0.062929995 0.017802477 0.053422328 -0.046700034 -0.047737405
-0.03934809 0.101001516 -0.08145403 -0.118943185 0.19377013 0.03331742 -0.13318454 0.062068228
0.008800361 0.19481592 0.20239049 -0.15326303 0.046248663 -0.053994153 0.060107604 0.14973484
0.030071119 0.064675786 0.0959287 -0.0482582 -0.15735355 -0.048143428 0.11770396 0.06482154
-0.18955511 -0.13406083 0.046693817 0.100552194 -0.049576316 0.07760331 0.17627247 -0.007715382
0.17020252 -0.093739845 0.18443304 0.0803518 -0.0018241581 0.15298992 -0.005956035 0.11750189
-0.08420405 -0.17761847 0.041059934 -0.1710686 0.14314353 0.16276567 0.041844696 -0.07866222
0.03584537 0.031922758 -0.11591844 -0.09354703 0.13657081 -0.11646665 -0.12390618 -0.033999365
-0.061025757 -0.23492804 -0.18625198 0.09214829 -0.17149764 -0.06461572 -0.03672913 0.11220745
-0.06990837 -0.002095609 0.08331844 -0.13669519 0.15885366 0.064415544 0.08707069 -0.06846394
00000000: 9b4e 10bd a387 09be 439f a8bd 617e 61bd
00000010: 832c d9bd 5505 ed3d 35ad c9bd e9d9 cb3d
00000020: 63d3 89bd 767e 9939 6ee6 6ebc a04a 9ebd
00000030: 94d5 b0bd 9091 aebd dbf3 033d ed78 273c
00000040: 02cc ee3c fcae ebbc f884 213e 6d25 2dbe
00000050: 5c95 0d3e 3437 b5bd c792 133e 8cc3 bebc
00000060: 43f5 60bd 8cc6 50be aed2 e43d f45e 22be
00000070: fcd2 e6bd 198b d63d 22c5 413e 8a4c 333e
00000080: 7798 e73c e471 eb3d b571 323d 04d0 d73a
00000090: 8271 bc3c f7dc 9e3d 9095 3f3e 37ff 1a3e
000000a0: 65e2 70bb c86e 993d 5efc acbd 14d9 0cbd
000000b0: 70cc 21be 64a4 09bd 98e4 bcbd 1508 0e3d
000000c0: 0531 30be 9cd2 b6bd 0126 c63d 42e5 75bc
000000d0: 10e4 633e e06b b03c 701d b6bd 3dc5 253e
000000e0: 2946 073d ff78 393e a0d0 f33d 46df fbbb
000000f0: 1388 6bbd b11d 1b3e 0e29 413d bafb 573d
00000100: 3310 36bd 66c5 cfbd 2558 183e 73d0 e6bd
00000110: 6edf e93d 3c57 073e 55e3 30be a1b6 973a
00000120: b3a4 0e3e d85f 093e 12da bfbd d2d6 96bd
00000130: c883 9cbd e611 a3bd 6d9a 4cbd 517b a43d
00000140: 0fb9 d1bd ac0c d2bd 7cec bbbd b908 a4bc
00000150: 8093 99bd ac25 263e 4cfd 1a3d 7b89 923c
00000160: 2c71 073e 8d9c ab3d b6ab 2fbe 750e 2ebd
00000170: 1f4f 97bc 2621 59bd 2607 88bd 6a0f 253d
00000180: 3c1e 583d e53f 79bd 9236 1e3d ba6c 7dbd
00000190: eefd e8bd 4895 d73d dca1 af3d c5ce a33c
000001a0: f5a7 dabc 60ac 7e3d ea5e 393e 4a85 9f3d
000001b0: 2240 303e 4636 5c3e 814c 38bc 9c53 813d
000001c0: 33ec 1fbd d478 253c ec97 7b3e b15a 823d
000001d0: 9b46 6e3e 1b1f b2bd 8f29 d0bd ebc9 d4bd
000001e0: 46b6 12be cc13 66bd 03ed 553e 1743 0e3e
000001f0: 5114 8ebc e474 91bc 88fb 903d 3cc3 4dbd
00000200: 0602 ac3c 9a91 583d c665 073e 3382 7f3d
00000210: fb97 293e 4c8f a03d 6e3e 7bbd b982 03be
00000220: 657a 82bc 1b91 003e 8be0 803c 7dec 6bbd
00000230: 4f11 15bc bb42 dfbd a730 7d3d c5ab 3bbd
00000240: 5edf d43d 3ef2 ffbd a710 d53d 924a f1bd
00000250: 5bc1 6fbd 1a41 c63c e275 ac3d 0a8c a7bd
00000260: 6a46 be3d 8552 82bd cc7f 9d3d b0e0 a8bd
00000270: 08ad c3bd aa46 133e 3f0a bfbd b884 483d
00000280: 6868 cbbc 208b 0fbc 5b03 42be 8c06 3cbe
00000290: 3ee0 a73d 7d32 193e d8b3 aabd 6c3e 3b3e
000002a0: 83ad 513e a2ab 3bbe 7266 e03d 611a dfbd
000002b0: 8bc1 48bd ae67 223e 49d1 98bd c37b eabc
000002c0: 2391 2dbe c3b8 30bd f4a9 483e 71e1 803d
000002d0: 80d6 913c 5fd1 5a3d 8948 3fbd 4c88 43bd
000002e0: 762b 21bd e2d9 ce3d 5fd1 a6bd 7c98 f3bd
000002f0: ad6b 463e d977 083d 8761 08be 413b 7e3d
00000300: 642f 103c d37d 473e 743f 4f3e fcf0 1cbe
00000310: 3d6f 3d3d f928 5dbd 6433 763d 1754 193e
00000320: b557 f63c bd74 843d 4476 c43d 64aa 45bd
00000330: 4a21 21be 0b32 45bd c60e f13d 28c1 843d
00000340: bc1a 42be 3e47 09be 0442 3f3d 4fee cd3d
00000350: 8910 4bbd 7cee 9e3d c580 343e 51d1 fcbb
00000360: 9249 2e3e adfa bfbd 04dc 3c3e 7c8f a43d
00000370: 9718 efba 64a9 1c3e d82a c3bb d5a4 f03d
00000380: 2c73 acbd 9ee1 35be 762e 283d 9b2c 2fbe
00000390: 3894 123e 0bac 263e 5865 2b3d a819 a1bd
000003a0: 98d2 123d 70c1 023d a666 edbd 9695 bfbd
000003b0: 38d9 0b3e 1186 eebd 86c2 fdbd eb42 0bbd
000003c0: 25f6 79bd fa90 70be d7b8 3ebe 3eb8 bc3d
000003d0: 149d 2fbe 3f55 84bd 4971 16bd 05cd e53d
000003e0: 1f2c 8fbd 7c56 09bb dca2 aa3d d3f9 0bbe
000003f0: 89aa 223e 4cec 833d 1e52 b23d d236 8cbd

dnn/logits/MatMul f4 [1, 64]
0.37455708 -0.33207166 0.24823214 0.11794995 -0.24002723 0.04698595 -0.26549926 -0.19817823
0.376118 0.2637335 0.24864063 0.121104345 -0.37100536 0.30179018 -0.17965184 0.19836026
-0.17372933 -0.12761745 -0.27479085 -0.15533616 -0.11500447 0.14822923 0.27640006 -0.24698159
-0.25296956 0.119625576 0.27728558 -0.17465752 0.21866244 -0.024775142 0.16016462 0.15031265
0.23072137 -0.14996217 -0.21950221 -0.28532404 0.29106376 0.035242967 0.3638788 -0.10719412
-0.2893547 -0.104244694 -0.26173675 0.35660577 0.38456833 -0.15325537 -0.32562009 -0.2779255
0.036945093 0.16664556 0.370026 0.18622446 0.28025126 -0.35781795 -0.21460557 0.20614193
-0.01260012 0.39790982 -0.16281681 -0.27978534 -0.23204143 0.14772084 0.40458646 -0.16671315
00000000: f2c5 bf3e 4c05 aabe 9130 7e3e be8f f13d
00000010: b3c9 75be 5774 403d 85ef 87be 3cef 4abe
00000020: 8a92 c03e 1408 873e a69b 7e3e 8e05 f83d
00000030: 6af4 bdbe 3e84 9a3e a7f6 37be f41e 4b3e
00000040: 1ae6 31be 26ae 02be 63b1 8cbe 7110 1fbe
00000050: 7787 ebbd 67c9 173e 4f84 8d3e bee8 7cbe
00000060: 3a85 81be 41fe f43d 60f8 8d3e 6cd9 32be
00000070: 0ce9 5f3e 3df5 cabc 3202 243e 8feb 193e
00000080: 3942 6c3e af8f 19be 30c5 60be fe15 92be
00000090: 4f06 953e ee5a 103d 524e ba3e 9788 dbbd
000000a0: 4d26 94be 3e7e d5bd 5c02 86be 0895 b63e
000000b0: 24e6 c43e faee 1cbe adb7 a6be 404c 8ebe
000000c0: bd53 173d 22a5 2a3e 0c74 bd3e a0b1 3e3e
000000d0: 187d 8f3e ea33 b7be 90c1 5bbe df16 533e
000000e0: bc70 4ebc d6ba cb3e 73b9 26be 0640 8fbe
000000f0: 459c 6dbe 2244 173e f525 cf3e dab6 2abe
