myapp/.dart_tool/chrome-device/Default/optimization_guide_prediction_model_downloads/c36c7342-fe74-4ff9-bc8c-4b84538eadd4/model.tflite (tflite, 67216 bytes, 5 tensors)

dnn/hiddenlayer_1/bias/part_0 f4 [64]
000000 42 39 0f bd 21 2b 7e 3d 97 56 1b bc a2 1c 77 bd
       -0.034966715 0.06205285 -0.009481094 -0.06033004
000010 4d 3a 43 bd 32 c2 68 bd f8 f4 06 bb cb 16 18 bd
       -0.04766302 -0.056825824 -0.002059279 -0.037131112
000020 b8 bd 8d bc 18 49 00 bd 24 e2 18 bc e8 f6 a8 bc
       -0.017302379 -0.031319708 -0.00933126 -0.020625547
000030 f9 21 53 3d a7 19 a1 bd 7b 0e 2f bd 88 31 85 bc
       0.05154607 -0.07866221 -0.04273842 -0.01625897
000040 a5 48 1b bc 72 73 46 3d 64 44 8d bb de 1e 40 3c
       -0.009477769 0.04844994 -0.0043111313 0.011726109
000050 7f 17 a9 3d ee 6e 6a 3d d0 39 9e bd a9 59 8d 3d
       0.08256435 0.057234697 -0.077258706 0.06901867
000060 ec 63 c5 bc ab ac b0 bc b0 0c 02 bd 48 5c b2 3d
       -0.024095498 -0.02156671 -0.03175038 0.087090075
000070 c3 9a d1 3d 7c c4 3f 3c ca 76 e6 bc 58 fa 39 bd
       0.102345966 0.01170456 -0.028132815 -0.045404762
000080 7d 1d d6 3d 55 46 50 bd b9 d3 a2 3d 9c f9 b5 3b
       0.10454843 -0.050848324 0.07950539 0.0055534374
000090 e7 18 0c bd 1f af c3 3d ee 1f 81 b9 83 75 dc 3c
       -0.034203436 0.09554886 -0.00024628587 0.026911503
0000a0 87 9a e3 bb 75 cd db bc 0d db f7 3b 95 5e c4 bc
       -0.0069459113 -0.026831368 0.0075639547 -0.023970881
0000b0 69 48 83 3d c6 19 81 3d a4 5a 37 3d ac f5 21 3d
       0.064102955 0.06303744 0.044764176 0.03954093
0000c0 f9 c9 07 3d 6f 02 ca bc 5a 35 4f bc cb ea f9 bd
       0.0331516 -0.024659364 -0.012646997 -0.12202986
0000d0 d6 96 8e 3b 63 67 3d 3d 1f aa 64 bd c3 4f 3f 3b
       0.004351477 0.046241175 -0.055826303 0.0029191829
0000e0 aa fb fe bb 82 4b 74 3b a3 f0 c7 3d f8 b8 f0 bb
       -0.0077814655 0.0037276451 0.09762695 -0.0073462687
0000f0 19 fe 8f bd 8b 6b 40 3d 14 41 48 bd e8 1b 23 3d
       -0.07030887 0.04697756 -0.04889019 0.039821535

dnn/hiddenlayer_0/bias/part_0 f4 [128]
000000 b9 b6 18 ba 1f d5 b0 bd 1b 7e ae b9 c9 27 7c 3d
       -0.00058255676 -0.086343996 -0.00033281822 0.06156138
000010 8e 10 95 b8 64 8b c8 3d df b1 86 3d 09 66 70 bc
       -7.107957e-05 0.09792212 0.06576895 -0.014672765
000020 f5 a9 06 bc a9 5e bc 3d ee ee b3 bc d7 14 92 3d
       -0.008219232 0.091977425 -0.021964516 0.07132881
000030 fc 1a b9 b9 1d a5 92 3d 66 71 cc 3c a7 9b 2b be
       -0.00035306055 0.07160399 0.024956416 -0.16758595
000040 4c cc e3 3a 97 70 80 3d 09 0f 36 bd 39 8e 7b bd
       0.0017379611 0.06271475 -0.044447932 -0.06141493
000050 32 fd 66 3c cb 74 f6 3b 71 2b 25 bd cf 3b 9e bc
       0.014098452 0.007521247 -0.040324632 -0.019315628
000060 8b 78 24 bc bf 53 46 bd c1 4f d1 bc bd 96 c2 bc
       -0.010038505 -0.04841971 -0.025550725 -0.023753518
000070 49 3f 70 3b 59 8c 12 bc 60 cf 1d 3d e8 d6 7b 3c
       0.0036658815 -0.008944594 0.038527846 0.015371062
000080 c1 9c ca bd 99 ad 0e 3d 6a 23 19 bd c9 21 19 3e
       -0.0989318 0.034833524 -0.03738729 0.14954294
000090 41 09 dd bb 7c 37 9f 3b e5 f2 23 3d ff 5f 39 3d
       -0.006745488 0.004858909 0.040026564 0.045257565
0000a0 58 ea 46 bc d1 b1 bd bd f8 89 e0 bd 79 fb 54 3d
       -0.012140833 -0.092624314 -0.109638155 0.051997636
0000b0 d9 d1 3d 3d 21 c3 2f be 82 ef 32 bd 09 db 37 3d
       0.046342704 -0.1716428 -0.043685444 0.044886623
0000c0 3a 74 13 3c 1d 77 3f 3c 65 4d b4 bd 06 58 c9 bc
       0.008999879 0.011686114 -0.08803824 -0.024578106
0000d0 fd 42 88 3d 99 b6 98 bc 32 e2 75 3d a9 bb 65 3c
       0.06653402 -0.018641757 0.06003017 0.014021792
0000e0 b5 e4 f1 bc 6b 42 23 3d 44 64 95 bc 87 2f f2 3c
       -0.029528001 0.039858263 -0.018236287 0.029563678
0000f0 f5 fa fd bc 34 50 e9 bc 04 60 27 3b 82 ed 01 bc
       -0.031003455 -0.028480627 0.0025539408 -0.007930161
000100 a3 d8 0a 3d 1f 4e 23 3d 8b b9 d7 3a 33 a2 10 bc
       0.033898007 0.039869424 0.0016458494 -0.008827734
000110 68 d8 1f bd c5 f6 3f bd 6f 5d 43 3c df 74 e4 3c
       -0.03902474 -0.046866197 0.011924132 0.02788776
000120 67 27 35 3d 25 38 d1 3c 61 01 81 bd d2 ab 11 3c
       0.04422703 0.025539467 -0.06299091 0.008891063
000130 8d f8 13 bc 2c 70 de 3b f7 c9 86 bd f4 d9 a9 bd
       -0.009031427 0.0067882743 -0.065814905 -0.082935244
000140 5e 4f 4c bb 54 a5 3c bc a1 ca 96 bd 1f 75 49 bd
       -0.0031175236 -0.011514027 -0.07362867 -0.04918396
000150 7a 42 3a 3d 1c 03 56 3c 3a 44 85 3c 1d 8a 42 bd
       0.045473553 0.013062265 0.016267885 -0.047494996
000160 3a f6 19 bd 33 7d c4 bc 6c 52 49 3d 6b f3 5c 3d
       -0.037588336 -0.02398548 0.04915087 0.05394308
000170 4f 11 31 bd 24 d6 be bc cf 35 2f 3d d4 c2 9b 3d
       -0.043229397 -0.02329547 0.042775925 0.0760552
000180 ec 93 ad 3d fc b6 c5 bc da 3d 98 3d b8 d5 72 bd
       0.084754795 -0.024135105 0.07433672 -0.05928585
000190 b0 e7 a5 bd 33 76 cd bd 3d a0 f1 bd 5d 31 ea 3c
       -0.081008315 -0.1003231 -0.11798141 0.028587991
0001a0 a8 52 71 3d 27 83 24 be e9 82 e8 3c 2c 85 4d be
       0.058916718 -0.16065656 0.028382735 -0.20070332
0001b0 cc 8a bb 3b 4e af 99 3d cf 37 1f bd 5d 00 3e 3d
       0.005723333 0.0750414 -0.038871583 0.046387065
0001c0 0c be b7 3d ee ce 86 3c cf 1d 70 3d 0e 88 42 3a
       0.089717954 0.016456094 0.058622178 0.00074207864
0001d0 1d 88 8f bc a6 6e a5 bc 44 59 85 bd 92 11 c0 3b
       -0.017520959 -0.020194363 -0.06511167 0.0058614695
0001e0 94 db 0c 3d fd 06 b5 3d fe 74 99 3c 63 54 da b9
       0.034389094 0.088392235 0.018732544 -0.00041643073
0001f0 14 e3 e5 3b d3 0a dc bb 48 9e 6b 3d 5e 05 e6 3d
       0.007015595 -0.0067151575 0.057523996 0.112314925

dnn/hiddenlayer_0/MatMul f4 [128, 12]
000000 1b ed f1 3d 89 ed 40 bd 68 5b fc 3d a0 ce 1c 3e
       0.118128024 -0.04710153 0.12322122 0.15313196
000010 16 2f b5 bd bf 8c e6 3d 51 3c 3f bc 24 3a dc bc
       -0.088468716 0.11257314 -0.011672095 -0.026883192
000020 67 13 27 be 92 e2 08 3e 37 49 57 ba 78 74 52 be
       -0.16315995 0.1336768 -0.0008212509 -0.20552242
000030 dd 6c 28 3e 91 5a 84 bd 74 47 2c bd 8d 26 fe bd
       0.16447778 -0.06462587 -0.04206033 -0.12409697
000040 a7 64 e5 bd a1 0a 0f 3e b9 ca 41 bb ae 01 79 bd
       -0.112008385 0.13968898 -0.0029570295 -0.060792617
000050 38 3f 94 bd 46 96 c0 bd e3 e0 70 3d a5 77 7a 3d
       -0.072386205 -0.094036624 0.05880822 0.06114926
000060 d7 5e 32 be 0d 36 11 be c0 64 14 3d 97 b1 1a be
       -0.17418991 -0.14180775 0.036228895 -0.15106808
000070 48 62 9b bd 13 ae fb 3c b5 d8 07 3e 0e 51 29 be
       -0.07587105 0.030722653 0.13266261 -0.16534826
000080 3e 23 d8 3c 8a 1b 9e bc e8 bd f1 bc 3c f5 68 bd
       0.026383992 -0.019300241 -0.0295095 -0.0568745
000090 87 93 09 3e 01 10 43 3d 9b 18 c8 3d b7 99 56 bc
       0.13435183 0.047622684 0.09770318 -0.013098172
0000a0 23 01 36 3e 0e 2d 86 bc b3 2d 01 bd b6 06 45 bd
       0.17773871 -0.016378906 -0.031537723 -0.048102103
0000b0 96 a3 6c bd 0a 11 1a bd b0 48 36 3e 2a 5f 59 be
       -0.057773195 -0.037613906 0.17801166 -0.21227708
0000c0 40 5f 90 bd 7e ad d8 3d c2 aa 0d 3e 0b 5f 3f be
       -0.070494175 0.10579966 0.1383467 -0.186886
0000d0 a1 a6 52 3e 5f ec 37 be 33 a6 37 3c cb d3 1a be
       0.20571376 -0.17961262 0.011209059 -0.15119855
0000e0 e8 cb 03 be 97 b4 09 3c ce c6 b8 bb 5c 44 5c be
       -0.12870753 0.008404872 -0.0056389337 -0.21510452
0000f0 70 fb 81 be 2f 17 1b 3e f2 7b 94 bd a7 f6 bf bd
       -0.25387144 0.15145563 -0.07250203 -0.09373217
000100 7f 40 62 be 5d d1 51 3e 6c f5 a4 bd 53 e6 6c bd
       -0.22094916 0.20490022 -0.08054623 -0.05783684
000110 a2 d9 8d 3c 48 85 a3 3d 48 6c 45 bd 5b 3e 67 3e
       0.01731569 0.07984406 -0.04819897 0.2258238
000120 14 05 41 be 7d 65 5a 3e 87 61 1b 3e 3b 6f 43 3d
       -0.18849593 0.21327777 0.15173922 0.0477135
000130 4a 37 42 ba 39 1b 23 3d 8c 77 96 3d c9 c1 12 3c
       -0.00074087514 0.039820883 0.073470205 0.008957335
000140 1b 51 4a 3e 28 03 04 3e 58 1c 0f 3e 0a 59 87 bd
       0.19757502 0.12891829 0.13975656 -0.0660878
000150 00 20 8f bd 14 6f 44 bd 08 2c 3c be a6 d3 06 bd
       -0.069885254 -0.047957495 -0.18376172 -0.032916687
000160 0d 4e 21 be 51 34 c7 bb a4 f8 e9 bd 16 de 7c bd
       -0.1575243 -0.0060792346 -0.114243776 -0.061735235
000170 59 59 d8 3d a5 53 05 3c db aa 0c be 4a 2e 89 3d
       0.10563917 0.008137618 -0.13737051 0.06698282
000180 35 1a e8 3d 6a 7a 50 be 26 0e 52 bd ec f9 a3 3d
       0.113331236 -0.20359197 -0.051283024 0.08006653
000190 47 96 9b bd 61 30 9f 3d 25 1e 98 3c 5d 39 36 bd
       -0.075970225 0.077728994 0.018569062 -0.0444883
0001a0 dc db e3 3d 00 8a 9c bd 3b aa 16 3e b9 1c 38 be
       0.11125919 -0.07643509 0.14713375 -0.17979707
0001b0 ba 63 fd 3d a3 e5 10 be 5c 5e 16 bd 6a dd f9 bd
       0.12372537 -0.141501 -0.03671108 -0.122004345
0001c0 5e 28 1c 3e 3d 9f 29 3d 2b 3f 22 be 62 20 f6 3d
       0.15249774 0.041411627 -0.15844409 0.12017895
0001d0 14 2a 1d be 88 41 11 bd 9a 4e 51 3e 9b 2b 4b 3e
       -0.15348083 -0.035462886 0.2044014 0.19840853
0001e0 9c b2 02 be 41 45 18 be 95 1f 03 bd a8 b2 3a 3e
       -0.12763447 -0.14870168 -0.03201254 0.18232214
0001f0 ec d8 ee ba 44 72 f1 bd 9a 04 4c bd c9 9e 04 3e
       -0.0018222607 -0.117893726 -0.049809076 0.12951197
000200 99 a3 30 3e 20 44 31 bd 9d 85 e3 bd e5 62 39 be
       0.17249908 -0.04327786 -0.11109469 -0.18104132
000210 45 ce ec 3d b1 85 7f bd 5d e0 54 3d 56 45 04 3e
       0.1156278 -0.062383357 0.051971782 0.12917075
000220 48 89 d7 bd 4d bd 2c 3e a9 bd 07 3e 4e 50 82 3d
       -0.10524231 0.16869088 0.13255943 0.06362973
000230 62 1d 4e 3d 9e a6 b1 3d 08 f0 ab 3d 02 a7 6f 3d
       0.05032099 0.08674358 0.08395392 0.05850888
000240 48 cb 42 3e eb cd f0 bd be a7 ae bd 51 02 04 3e
       0.19022858 -0.11758026 -0.08528088 0.12891509
000250 21 60 44 be 1c 6d 3c be 8b ec 44 3e d2 1a 9c 3d
       -0.19177295 -0.18400997 0.19230859 0.07622303
000260 b7 7f 2e 3d 87 ce d9 bd c4 7b 75 3e fe 89 46 bd
       0.042602267 -0.10635095 0.23972994 -0.048471443
000270 82 02 99 3a 0a 6f 12 3e b6 e2 a8 bd f1 cb 8b 3d
       0.0011673721 0.1430017 -0.08246367 0.06826008
000280 cd 87 5c be f0 11 1c be 59 a6 bc 3d 35 38 c8 ba
       -0.21536179 -0.15241218 0.09211416 -0.001527554
000290 0e 57 04 3d 7b 74 14 bd 2d 5d fd bd 68 ca 5b 3e
       0.032309584 -0.036243897 -0.123712875 0.2146393
0002a0 49 db 33 bd 80 0e 5e 3d 80 a8 86 bc 80 b4 8f 3d
       -0.0439103 0.054213047 -0.016437769 0.070168495
0002b0 84 02 0a bc fc 9b 61 be d1 8b 2d 3d 1a 9c db 3c
       -0.008423451 -0.2203216 0.042369667 0.026807833
0002c0 02 80 ef 3d 68 c1 94 bc f5 55 9a bd 40 b4 5e 3d
       0.116943374 -0.01815863 -0.07535926 0.05437112
0002d0 fa 87 f8 3d c3 12 b3 3d 0c 79 99 be 63 a9 91 3d
       0.121353105 0.08743813 -0.29975164 0.07112386
0002e0 83 12 d5 3d 60 f4 10 3e 6b a0 ce 3c 21 5f 10 3e
       0.104039215 0.14155722 0.025222978 0.14098789
0002f0 4b 55 a1 3c bd 6d ef 3c cc 6a 69 ba f2 84 74 3e
       0.019693991 0.029227132 -0.00089041586 0.2387884
000300 63 e3 bc bd c3 72 41 be a0 e8 a1 bd 4c c0 4f 3e
       -0.09223058 -0.18891434 -0.07905698 0.20288199
000310 19 0f b4 bc d7 48 d6 3d 91 76 87 3c 4b b1 ca 3c
       -0.021979855 0.10463112 0.016536029 0.024742743
000320 0d af 57 3e f0 33 ff 3a 63 1e 1f be 08 bd 99 bd
       0.2106287 0.0019470435 -0.15538935 -0.07506758
000330 cf e1 82 bd 34 c1 57 3e b5 54 2f bd f2 ee 2f 3e
       -0.06390726 0.21069795 -0.042805392 0.17180994
000340 a6 fb 22 3e 27 8c fd bc 07 2f 3a bc 9c cc 06 be
       0.15916309 -0.030950619 -0.011363751 -0.1316399
000350 f5 45 4b 3d 4c 1b a0 bd d7 1a 9e 3d e3 dc 78 3e
       0.049627263 -0.078177065 0.07719963 0.24303012
000360 7f e1 aa 3d e9 76 2c be dd 99 32 3e aa 3d fe 3d
       0.08343791 -0.16842236 0.17441507 0.12414105
000370 2b ce 32 3e 27 0f 8e 3d aa 2a 41 3d f6 e2 c7 3d
       0.1746146 0.06936484 0.04715983 0.09760086
000380 9a bb 38 be b7 ea 7a 3d 12 3f 9e bd 38 22 e8 3b
       -0.18040314 0.061258998 -0.077268735 0.0070841573
000390 f6 3a 63 bd ff 5d 18 3e f0 36 74 bc 05 7a 15 be
       -0.05547615 0.14879607 -0.014905676 -0.14597328
0003a0 f5 eb 0b 3e ca 29 52 be 61 0c 89 3d b6 c9 96 bd
       0.13664229 -0.20523754 0.06691814 -0.07362692
0003b0 79 56 2b 3e 1f e8 4f be cc ba 34 bd 7f 74 ab bd
       0.16732205 -0.20303391 -0.044123456 -0.08371829
0003c0 d7 91 75 3e 0c a6 f8 bd dc 8b 19 bd 47 49 05 bd
       0.23981415 -0.12141046 -0.037486896 -0.032540586
0003d0 b4 82 4b 3e 6c 35 a4 bd 33 be 4b 3d 95 7e b0 bd
       0.19874078 -0.08018002 0.049741935 -0.086178936
0003e0 fa 48 72 3d 4a 0f 2c be fb 87 df bd af f5 64 be
       0.059151627 -0.16802707 -0.10914608 -0.22359346
0003f0 03 9b 83 ba c1 01 ad bd 18 7f 3b bc c3 64 09 3d
       -0.0010040704 -0.084476 -0.011443876 0.03354336

dnn/hiddenlayer_1/MatMul f4 [64, 128]
000000 70 43 f4 bd 6e aa f9 3d 51 39 e2 bd e0 b8 c9 3c
       -0.11926925 0.1219071 -0.110460885 0.024624288
000010 0a c3 ee 3b 37 3e 08 3e 54 55 13 be 03 4e 34 bd
       0.007286434 0.13304983 -0.14388019 -0.04401971
000020 2d b4 86 bd f5 af 0c be 39 24 02 3e 58 ad c8 bd
       -0.065773346 -0.13738997 0.1270913 -0.09798688
000030 29 98 37 be 4e ba 30 be 90 a3 1d 3c 48 28 40 bd
       -0.17929138 -0.1725857 0.009621516 -0.046913415
000040 73 80 81 bb 88 c6 f6 3c b8 33 1a 3e f4 e3 8c 3d
       -0.00395208 0.030123964 0.15058792 0.06879416
000050 d1 c0 2d bd f4 a7 ec bc 5a 9d 69 3d b8 46 34 3d
       -0.042420212 -0.02888868 0.057034828 0.044012755
000060 94 6f 08 be 42 95 b9 bd ae b5 c6 3d d1 c0 09 3e
       -0.13323814 -0.09061672 0.097026214 0.1345246
000070 59 8f 66 bb 39 1f 06 3c 09 64 80 3d 84 e3 f6 bc
       -0.0035180657 0.008186155 0.0626908 -0.030137785
000080 34 cb 81 bd 28 dc 29 be be 2b 30 3e 3b 51 11 3e
       -0.06337586 -0.16587889 0.17204186 0.14191143
000090 16 86 be 3c f7 c6 3f bd 55 a0 56 3b ea 56 23 3e
       0.023257297 -0.046820607 0.0032749374 0.15951124
0000a0 6e 68 67 3d 93 a4 7e 3d 74 96 74 bd af d0 18 be
       0.056496076 0.06216867 -0.059713796 -0.14923356
0000b0 3b 83 2f be cc 54 58 bd 69 71 90 bd 18 74 1d be
       -0.17139904 -0.052815244 -0.07052881 -0.15376318
0000c0 ef bd a0 bd 05 d2 bf bc 62 51 76 3d a0 83 ba bc
       -0.07848727 -0.023415575 0.060136206 -0.022767842
0000d0 35 08 55 bd b4 d6 3d bd 9f e1 a0 3d 53 04 1a be
       -0.05200978 -0.046347335 0.07855534 -0.15040712
0000e0 54 05 f0 bd 1f b3 5b bd 68 5e 1f bd 53 ae f3 3c
       -0.11719766 -0.05363762 -0.038908392 0.02974621
0000f0 26 ab e7 bc 38 4d e3 bd 64 0b 31 be 4c 37 29 3e
       -0.028279852 -0.11098713 -0.17289501 0.16525
000100 d3 a6 18 3d b2 83 9b 3b c7 b1 0b bd 64 c3 ae bd
       0.03726847 0.004745924 -0.03410509 -0.085333616
000110 33 68 9f bd b0 5d 11 be 89 dc 0d be 13 a0 21 3b
       -0.07783546 -0.14195895 -0.13853659 0.0024662062
000120 dd 03 c4 bd 4f fd 62 3d 30 d7 87 3d 79 13 24 be
       -0.09571049 0.055417355 0.06632841 -0.16023053
000130 39 9e e1 bc 48 7f aa 3d f0 ef 33 be 0f 93 a6 bd
       -0.027541267 0.08325058 -0.17571998 -0.08133518
000140 32 d4 6b 3d da 8c 8f bc 0f 55 81 bd 6b f4 1c 3e
       0.057575412 -0.017523218 -0.06315052 0.15327613
000150 f3 97 16 be c0 35 b4 bd 7e aa c2 3d 16 1b d8 bb
       -0.14706402 -0.087993145 0.09505175 -0.006595026
000160 31 d2 3b bd 3c 80 bf 3d 5d a5 3a bd 61 bf c7 bd
       -0.04585475 0.09350631 -0.04556786 -0.097532995
000170 2a 15 84 3d 17 5d 16 be fa 04 e6 3d 92 4b 6e 3c
       0.06449349 -0.14683948 0.11231418 0.014544385
000180 dd 23 f6 3c 97 e7 2a be 70 8e 89 3d 2d 2e 9b bc
       0.030046398 -0.16689907 0.06716621 -0.018942917
000190 85 77 13 3c 0e 10 86 3c 13 07 1f be 0b a8 51 bd
       0.009000664 0.016365077 -0.15530042 -0.05118565
0001a0 24 f5 90 bd 76 fd db bd d4 47 9e bd 59 2e 08 3e
       -0.07078007 -0.10741703 -0.07728544 0.1329893
0001b0 8a bc fe 3d aa c6 2c 3b a8 05 db bd d5 cd 23 be
       0.12438305 0.002636353 -0.10694438 -0.15996487
0001c0 45 40 db bc 2e 8e d3 bd 2f 37 3a be 1d c9 11 3c
       -0.026764045 -0.10329853 -0.18185113 0.008898047
0001d0 fe 4f 80 b9 55 49 20 be 53 4a 18 bd 04 c2 a6 3b
       -0.0002447366 -0.15652974 -0.037180256 0.0050890464
0001e0 c0 11 b3 3c a4 83 d9 bd 28 3e 9f 3d 6b 4b f1 bd
       0.02185905 -0.106208116 0.07775527 -0.11781963
0001f0 b2 a7 3a 3d 5c a1 25 3e cc f5 78 bd 44 ae e4 3d
       0.045570083 0.16174835 -0.060781285 0.11166051
000200 ec 48 99 3a 37 6b b7 bc ee 4c 64 3d 1f 1d 82 bc
       0.0011694706 -0.022389991 0.05573743 -0.015883027
000210 cb 75 ef 3d 25 81 fd 3d 8e 9c ec 3d 7b 1c 37 bd
       0.11692389 0.12378148 0.11553298 -0.044704895
000220 30 38 9f 3d cd 13 a7 bd ed 22 76 3d 4f c1 32 be
       0.07774389 -0.081580736 0.0600919 -0.17456554
000230 ea 14 c6 bc d0 7e 45 be 22 c9 34 be 77 78 d1 ba
       -0.024179894 -0.19286656 -0.17654851 -0.0015981336
000240 85 b6 0e 3e 18 fc 19 be 15 d5 2e bd bf 81 db 3d
       0.13936813 -0.15037572 -0.04268368 0.107181065
000250 51 92 c7 3d f1 65 07 3e 35 e7 1d be 4d fc e9 3d
       0.097447045 0.13222481 -0.1542023 0.11425076
000260 cd d2 ce bd c6 6a 18 be 5b 77 02 be 6f 88 14 be
       -0.10098801 -0.14884481 -0.12740843 -0.1450517
000270 f1 6a a0 bd 72 49 6b 3d 1f b1 e2 bd f4 17 22 be
       -0.078328975 0.05744309 -0.110689394 -0.1582945
000280 3c bc 09 be 76 12 3c bd 82 63 30 3e aa 93 e2 3d
       -0.13450712 -0.045916043 0.17225459 0.11063321
000290 28 50 da bd 38 e3 24 3e 0c 91 3a be 54 7d 1e bd
       -0.1065982 0.16102302 -0.18219393 -0.03869374
0002a0 57 ab 89 3c 4d 12 93 bd f3 88 2c bd bc b8 00 3d
       0.016805334 -0.07181225 -0.042122792 0.031426176
0002b0 7a b9 06 3e d4 d1 eb bd 46 66 4d be 73 3d cd bb
       0.13156691 -0.11514631 -0.20058545 -0.006263429
0002c0 0e 3d e1 3d 23 ea 25 bc 94 bd f4 bc a4 cb 34 be
       0.109979734 -0.010126623 -0.029875554 -0.17655808
0002d0 91 da ea bd 5b d8 86 3d 5e 7c 27 3e e9 eb 4d 3d
       -0.114674695 0.06584235 0.16356036 0.05027381
0002e0 65 a5 f6 bc 4d c3 3e 3c c4 0e d3 3d 96 53 1f be
       -0.030108163 0.011643243 0.10305551 -0.15559229
0002f0 57 8e 43 bd 1b 12 6d bd ff 5a 92 bd 0d 7e ba 3d
       -0.047743168 -0.057878595 -0.071462624 0.091060735
000300 78 24 f4 3d f7 79 86 3c 7c 07 95 3d 92 4b 87 bd
       0.11921018 0.01641558 0.07276818 -0.06606211
000310 d3 c1 db 3d 3c 7c cb bd 19 df 25 be 41 10 3b 3e
       0.107303284 -0.09935805 -0.16198386 0.18267919
000320 67 92 58 3c 68 a3 30 be f2 5e f6 3d 7d df 9c bd
       0.013218499 -0.17249835 0.12029828 -0.076598145
000330 ba 4c 38 bd 3c 48 0c 3e b7 2d bd bc 40 44 ed bd
       -0.044995047 0.1369943 -0.023093088 -0.11585283
000340 0d e2 66 3c db dc 83 3d 2d 64 b8 bd cd f8 a6 bd
       0.014091981 0.06438609 -0.09003482 -0.08152924
000350 b9 c4 97 3d 97 ef 07 3e 1d 1a 16 bd d1 32 ba bd
       0.07410569 0.1327499 -0.036645997 -0.09091724
000360 70 76 a5 bb a5 15 b4 bd 36 39 d1 bd 3f 22 11 3e
       -0.0050495192 -0.08793191 -0.1021599 0.1417322
000370 a5 66 01 bc 52 bb 42 3d e9 ff 25 3e 04 77 c5 bd
       -0.0078980075 0.047541924 0.16210903 -0.09641841
000380 6e e9 03 3e 5d 88 ff 3d f6 28 8d bd 99 3a 4c 3d
       0.12882015 0.12477181 -0.06892578 0.04986057
000390 1a 2e 8e 3d da 32 7f 3c 0a 11 ef bd 1a 9f 20 be
       0.06942387 0.015576089 -0.11673172 -0.15685692
0003a0 52 49 24 be d3 7d c7 bd 8f 2c 1f bc 16 aa ac bd
       -0.16043594 -0.09740796 -0.009715213 -0.08430879
0003b0 91 57 17 3e 2f bf 96 bd f1 e6 81 3d 5a df 06 3e
       0.14779498 -0.07360684 0.06342877 0.1317114
0003c0 6c 99 f5 bd 71 8f f1 3d 4e fd 18 3d 2b de c9 bd
       -0.119921535 0.117949374 0.037350945 -0.09856828
0003d0 42 58 41 3c cc f1 98 3d 56 58 de 3d bf db 97 bd
       0.011800827 0.07467994 0.108566925 -0.0741496
0003e0 83 2a b4 bd 32 e0 ed 3c 48 a5 99 3d d3 6d 0f 3e
       -0.08797171 0.029037569 0.07502228 0.14006738
0003f0 22 32 f7 3a f6 a7 94 3b e2 ba b1 bd 71 af 18 be
       0.0018859545 0.004536624 -0.08678223 -0.14910676

dnn/logits/MatMul f4 [1, 64]
000000 d8 71 97 be d8 5f 19 3e 20 1f 8b bc bb a7 aa 3e
       -0.29579043 0.14977968 -0.016982615 0.33331093
000010 30 50 28 be a8 c3 9b 3e 68 7c 92 be b6 3f 65 be
       -0.16436839 0.3042271 -0.2861054 -0.22387585
000020 10 d0 13 3c 10 03 37 3e 79 95 13 3e c7 03 c4 be
       0.009021774 0.17872262 0.14412488 -0.38284132
000030 d3 93 18 3e b8 d2 97 be e7 69 99 be 06 a1 68 bd
       0.1490014 -0.29652953 -0.2996361 -0.05679419
000040 54 1c 1c bd 0d 85 5c 3e a2 2f 85 3e e3 d2 ab 3d
       -0.038112953 0.2153513 0.26012903 0.08389833
000050 59 15 b3 3e 29 e6 81 3e 3c 3d c1 be 35 63 6a 3e
       0.34977224 0.2537091 -0.3774203 0.22889407
000060 59 7a 53 3b 67 72 18 be 96 61 87 be 3a 04 49 3e
       0.003226897 -0.14887391 -0.2644164 0.19630519
000070 c9 64 a3 3e 22 42 b1 be 75 e1 d6 bd c1 92 1c be
       0.3191283 -0.34620768 -0.10492221 -0.15290357
000080 ba 10 c2 3e 97 d5 6f be 85 23 92 3e b9 5a cc bd
       0.37903386 -0.23421322 0.28542724 -0.099782415
000090 ca 19 c9 be 8a 40 a2 3e c6 c8 b7 bd 69 83 82 3e
       -0.39277488 0.31689864 -0.08973841 0.25490883
0000a0 e0 29 67 bd 3f 99 92 be 60 e4 10 3e 8d 9e e8 3b
       -0.05643642 -0.28632542 0.14149618 0.007098979
0000b0 7c 93 9f 3e e9 a2 1b 3e bc 09 7c 3e fb 61 8f 3e
       0.3116721 0.15198864 0.24613088 0.2800444
0000c0 1c 32 25 3e 62 5d 6e bd 43 71 e4 3e ec 34 09 3f
       0.16132396 -0.058194526 0.44617662 0.5359638
0000d0 d6 b6 00 3c 51 b6 8f 3e 96 8a 8f 3e 19 65 cd be
       0.0078560915 0.28068784 0.2803542 -0.40116194
0000e0 1f 37 9b 3c e3 01 7f 3c d6 f5 d0 3e 93 7a 32 be
       0.018947182 0.015564415 0.40812558 -0.17429571
0000f0 ea 41 8d 3e 95 74 1f 3e 17 cb 94 be 8a 1e 83 3e
       0.2758935 0.15571816 -0.29061195 0.25609237
